checkpoint.pt (torch, 79202 bytes, 20 tensors)

conv1.bias f4 [32]
00000000: 0b8b 09b8 a84e d838 b7cf 4338 8c53 2638
00000010: 89fa de36 2dac ba37 2f6f 1439 e922 23b8
00000020: 638a 9cb8 b89f 09b6 9d54 53b6 0a71 aa37
00000030: b943 8637 c8b9 14b7 313f fb38 6b82 9137
00000040: c61d c636 899d ea38 bfe2 ba37 13ac 2cb8
00000050: c6c3 7237 722c 41b7 5392 3138 c1cd ee37
00000060: 0041 e6b6 fce5 c8b6 1ae6 3a38 5070 2f37
00000070: 1fcf 66b7 6300 9c36 0827 2539 2ee1 03b7
-3.279284e-05 0.000103143335 4.6685072e-05 3.9655293e-05 6.6452817e-06 2.2253103e-05 0.00014155799 -3.889474e-05
-7.464436e-05 -2.050756e-06 -3.1490702e-06 2.0318217e-05 1.600558e-05 -8.864743e-06 0.00011980383 1.7346078e-05
5.904326e-06 0.00011187333 2.2278515e-05 -4.1168252e-05 1.4469906e-05 -1.1514045e-05 4.2336364e-05 2.8467623e-05
-6.862101e-06 -5.987238e-06 4.4560154e-05 1.0456963e-05 -1.3757292e-05 4.6492073e-06 0.00015750166 -7.860637e-06

conv1.lin.weight f4 [32, 3]
00000000: e8d4 f93e c10e 6a3e 6f80 4bbe d58e dcbe
00000010: 3375 103c 7dad 7d3e 6aff b0be 5c0b c63d
00000020: 1874 0e3c ae28 053f fc63 8e3a c460 533a
00000030: b682 833e 7ee1 ad3e 50e8 acba 9bbf 09be
00000040: 4264 a3bd 3d1c 4b3e 0c60 0dbf 846b 0d3a
00000050: c2f4 97b8 6946 c03e d80f 9eb8 f47d d3be
00000060: 7113 8ebd b015 513d cd4b 03bf 4a81 5c3e
00000070: 995c 863e 5714 a13e a5ed f83d b063 4f3d
00000080: cc48 c73e 5bbe 3b3e 4ee8 49be 998d 8d3e
00000090: cb8a 96be 4c5e c23e 8ab4 2e3a 1542 153d
000000a0: 50b5 66be 6f0c d13e f830 3139 47d6 d837
000000b0: 1862 1c3f 0a68 4fbd 775d 90bd 391f eb3e
000000c0: f98f 183b bd02 64be 6512 a5b9 6c64 0fbf
000000d0: 66d2 94bc 8f37 d8ba 6c6c 783e 17d8 b13e
000000e0: 6c3b 783d 0f6f 943e 5aba 143d c239 5b3e
000000f0: 7956 c1be e976 1fbe cd91 3fbe 27c5 eb3e
00000100: d41b 183e 69b5 8e3e 1b76 72be 0fb3 2e3d
00000110: f401 e93e dbf5 473e ac91 38be 25a6 acbe
00000120: 66b1 8ebd 4d3c a23e 9ae4 1e3e fc7f cc3b
00000130: 4320 74be 2c31 583a 7b21 843e 7012 05bd
00000140: cd7b c03e bbe1 76be 2e0b 883e b6b4 edbe
00000150: 92bb aa3b 6c29 903e 67c4 adba 15a6 0d3c
00000160: 0ce3 6b3e 6eed d73e 53ff fd3e 5130 e53c
00000170: 99d3 e23c c680 e53e d10c f1bc a037 c2bd
0.48795247 0.2285719 -0.19873212 -0.43077722 0.008817005 0.24773212 -0.34569865 0.096701354
0.008694671 0.520152 0.0010863538 0.00080634304 0.25685662 0.339611 -0.0013191793 -0.13451998
-0.07978107 0.19834991 -0.5522468 0.0005394744 -7.245831e-05 0.3755372 -7.536978e-05 -0.41307032
-0.06937302 0.051046073 -0.5128754 0.21533695 0.2624252 0.3146083 0.12154702 0.05063218
0.38922727 0.18334334 -0.19717523 0.27647093 -0.29402766 0.37962568 0.00066644757 0.036439974
-0.22530103 0.408298 0.00016898278 2.5848987e-05 0.6108718 -0.05063633 -0.07049077 0.45922258
0.0023279174 -0.2226667 -0.00031484957 -0.56012607 -0.018166732 -0.001649605 0.2426011 0.34735176
0.060603544 0.2899098 0.03631053 0.21408752 -0.37761286 -0.15572704 -0.18707962 0.46048853
0.14854366 0.2787278 -0.23677866 0.042651232 0.45509303 0.1952738 -0.1802432 -0.33720508
-0.0696743 0.3168663 0.15516892 0.006240843 -0.23840432 0.0008247073 0.25806794 -0.032488286
0.37594453 -0.24109547 0.2657103 -0.46426934 0.0052103484 0.28156602 -0.0013257385 0.008645554
0.2303583 0.42173332 0.4960886 0.02797714 0.027688788 0.4482481 -0.029425057 -0.09483266

bn1.weight f4 [32]
00000000: 7c80 413f dc92 433f e601 4b3f 2631 813f
00000010: 8074 0d3f 4cc0 2f3f d151 943f 83bd 623f
00000020: 2960 663f 8b2c d63e f88f 4f3f a49b 303f
00000030: a0f7 5a3f c0b9 3a3f 4496 a03f 3389 423f
00000040: a982 2d3f 771f 8d3f d342 283f b40e 363f
00000050: a7cb 483f f9ca 0a3f 6439 6e3f cd71 393f
00000060: 0b9c fb3e c88c 3e3f dd43 6b3f 1a8e 3b3f
00000070: 9a92 633f ddb2 4d3f 5b74 683f a2fb 513f
0.75586677 0.76395965 0.7929977 1.0093124 0.5525589 0.68652797 1.1587468 0.8857042
0.8999048 0.4183086 0.81079054 0.6898749 0.85534096 0.7293968 1.2545857 0.759906
0.67777497 1.1025227 0.65726966 0.71116185 0.7843575 0.5421596 0.9305632 0.7243927
0.4914249 0.74433565 0.91900426 0.73263705 0.8889557 0.8035105 0.90802544 0.82024586

bn1.bias f4 [32]
00000000: bcb4 263d d028 003e a875 533c f4ad 023a
00000010: c574 9a3c ee1a 23bd 250a dcbb 1753 84bb
00000020: 82af 963c a03b 8fbd fda8 003c 331d 48bd
00000030: 0203 f5bc 71ed bcbc 7ac8 323b 85a9 773c
00000040: fc32 8d3a a8cf 87be c74a 2fbc 083b 1fbc
00000050: 7fff e33b e28f f63c 2c63 3cbd 6af7 e0bc
00000060: 3ec1 86bb c119 53bd e1a8 5b3c 912a 1fbc
00000070: c9a6 60ba 070c 9fbc 2216 3ebc 2104 81bc
0.040699705 0.12515569 0.012906469 0.00049850275 0.018854508 -0.039820604 -0.0067150765 -0.0040382254
0.018394236 -0.069937944 0.00785279 -0.04885597 -0.02990866 -0.02306244 0.0027280138 0.0151161
0.0010772641 -0.26525617 -0.010698981 -0.009718664 0.0069579477 0.030097906 -0.045993015 -0.027461726
-0.0041123917 -0.051538233 0.013406963 -0.0097147385 -0.0008569775 -0.019414915 -0.011601957 -0.01574904

bn1.running_mean f4 [32]
00000000: 5d8b 773b ad48 2d39 4a21 b43a f591 8d39
00000010: 8a0a ba3b 9137 97ba d90c 92b9 6e60 6fb9
00000020: b978 6739 f676 9b3b d11e ae3a b6b3 36bb
00000030: 1f97 c43b 86cb 50bb 96fa 2f3a e4df 37ba
00000040: 2f1d 6dbb e8fc 0fba bb63 c03b 8976 823a
00000050: 0136 42bb 10f1 433b 2c78 8e3a 26fb 50bb
00000060: 566d ad3b aaee 7fbb 7e54 1237 f0cc 6e3b
00000070: 2d6d 963b f2e7 893b ebfc 463a 7c79 99b9
0.0037772276 0.0001652564 0.0013742831 0.00027002362 0.005677526 -0.0011536946 -0.00027856862 -0.00022828739
0.0002207485 0.004744406 0.001328433 -0.0027878112 0.0059994604 -0.003185959 0.00067130604 -0.00070142583
-0.0036180725 -0.0005492703 0.005871264 0.0009953539 -0.002963424 0.0029898323 0.0010869554 -0.0031887977
0.005292575 -0.0039052167 8.7219505e-06 0.003643807 0.0045906515 0.0042085582 0.00075907883 -0.00029272947

bn1.running_var f4 [32]
00000000: 7e61 093d 557f 993c e389 223c bca8 8c3c
00000010: a181 0d3d aacf ee3b 6288 9e3c 9f32 e73c
00000020: a5a5 fa3c b0bd 033d 10d6 983c 0502 aa3c
00000030: 8afc 2e3d a567 033d 7546 2c3d 50b9 ce3c
00000040: 86e7 533c 77c1 a33c 34bd 123d 925e 313c
00000050: 6f18 9f3c f7bc e53c 003a e03c 265d c13c
00000060: 0aba ee3c c196 733c 699e a63c 2205 3d3d
00000070: e56d a93c 03a2 0a3d 644d 823c 5e74 643c
0.03354024 0.018737474 0.00992057 0.017170303 0.034547452 0.007287939 0.019352142 0.02822238
0.030596564 0.032163322 0.01865676 0.020752916 0.04272131 0.032081265 0.04205938 0.025234848
0.012933617 0.019989712 0.03582497 0.01082577 0.01942083 0.028044207 0.027371407 0.023603987
0.029141445 0.0148674855 0.020339208 0.046147473 0.020682285 0.033845913 0.015906043 0.01394376

conv2.bias f4 [64]
00000000: 3c1c ef37 98b8 eab8 3c07 8ab8 ec63 9036
00000010: 86af 4fb5 f79b d1b7 4640 fd37 53e7 d037
00000020: e480 2e37 707b 55b7 ac74 4538 3828 3837
00000030: 364e c8b7 87fe de37 82a5 bd37 bd01 c637
00000040: d943 3638 5e01 97b7 b4d0 4038 e23b 00b8
00000050: 9bea d337 bc43 11b8 8a04 cab7 f4dd 96b7
00000060: d6ba 1eb7 4ea9 7735 e2b3 3a37 449e 48b8
00000070: f4eb 1538 91ca 00b9 0c5c 3b36 ef20 c9b7
00000080: b713 bc37 5e98 d4b6 f673 4ab6 e1db 97b7
00000090: aeca cab7 56ae 2d37 050b e8b8 53f7 0e36
000000a0: 85f2 a637 8ea8 8db7 e160 60b6 81aa 0638
000000b0: 2810 dcb5 7bf1 f936 c4c6 0c37 7fe5 6537
000000c0: 9463 2ab8 ebc1 cbb6 4d0e 0637 282e acb7
000000d0: 47d3 4d37 348c 7536 e12a d937 24de 04b8
000000e0: 7d47 be37 934b 54b7 7ecb a337 8dc7 09b7
000000f0: 9f82 f6b8 f594 91b7 ec5c ff36 5829 a9b7
2.8504168e-05 -0.00011192373 -6.5817e-05 4.303167e-06 -7.736893e-07 -2.4987368e-05 3.018988e-05 2.4903251e-05
1.0401218e-05 -1.2724529e-05 4.707712e-05 1.0976619e-05 -2.3878278e-05 2.6582986e-05 2.2607626e-05 2.3604249e-05
4.345537e-05 -1.800124e-05 4.5970737e-05 -3.057335e-05 2.5262407e-05 -3.4633777e-05 -2.408239e-05 -1.7984748e-05
-9.461035e-06 9.226104e-07 1.1128346e-05 -4.7831112e-05 3.5744117e-05 -0.00012282493 2.791875e-06 -2.3976403e-05
2.2420527e-05 -6.33583e-06 -3.0167844e-06 -1.8102992e-05 -2.4174657e-05 1.0352194e-05 -0.000110646746 2.130361e-06
1.9901674e-05 -1.6887e-05 -3.3434992e-06 3.2106884e-05 -1.6395979e-06 7.4488903e-06 8.390929e-06 1.3702897e-05
-4.0623898e-05 -6.0724465e-06 7.990352e-06 -2.0525491e-05 1.2268144e-05 3.6589454e-06 2.5888383e-05 -3.1678137e-05
2.2683054e-05 -1.2653781e-05 1.9525873e-05 -8.212298e-06 -0.00011754524 -1.735471e-05 7.6104097e-06 -2.0165622e-05

conv2.lin.weight f4 [64, 32]
00000000: 8dd7 bb3a 3750 01bd 7a8b f3bd 41cb 46be
00000010: 322c c6bd cf97 6a3c de76 203d a27d 0b3d
00000020: 4e2d 7dbc 76c0 253e 4733 b43c a323 99bd
00000030: 1b66 c63c 8ed9 70bd fcbb 31be 8bdf d6bd
00000040: d679 293d ced1 5bbd 2067 1fbe e5dd 2cbd
00000050: 5f50 8c3d ea08 40be 2790 003e c129 91bd
00000060: 9f90 893d ef7d 213e e610 96bd 4466 ee3d
00000070: b4b8 243e 3ff0 8bbc f70a e4be 35cc 80bd
00000080: 2e4e 1b3e 79b7 453d d01c 57bb a26b 2e3d
00000090: bcad 093e 71fa d7bb 9d14 2e3d 421b 3d3d
000000a0: c158 d63c 7cdb 9e3d 9673 c33d 04b0 ce3d
000000b0: c933 843c f7da fc3d b796 67bd b2a8 b8bb
000000c0: 0808 ef3d 265e 663e 5d49 c5bd c9b6 9abc
000000d0: 079a 203d 8792 f5bc 4cee 03bd b6a0 243e
000000e0: bb3e 4e3e ceed a63e 59d3 fb3d de36 2c3e
000000f0: 1994 403e edf4 443e afce bdbc c292 2b3e
00000100: c53e 0d3e fd0b 84be eb5c 123e 5027 183e
00000110: 54fa 66be 2a1a ecbb b7ed b83d 6c5d 5cbd
00000120: c6ff 93be e634 233e 00a9 42bd 440c b53d
00000130: 6543 19be 7f93 6f3e 8256 623e c86c 1abd
00000140: 3f40 093d bc88 0dbe 78a5 5abc 9d39 3abe
00000150: 4526 f93a 5879 0cbe 8135 e6be 7835 c1bc
00000160: 23d0 f93d 759a 31be 8b6e 5dbe 2cf2 7abc
00000170: 80bf fb3d 44bd 103e 9e6c b0bd 8238 0a3d
00000180: 4312 d13d 702a 8dbd 8ab2 cc3c 85f1 1abe
00000190: 3dd6 c7bd bf31 80bd 56cc 5d3d 890e 093e
000001a0: 30de 79be 9e3d b6bb 2d5b 17bd e5d0 18bd
000001b0: 768d d4bd 8734 08be 97f2 353d 06d1 51be
000001c0: 5aee 3d3c c757 52bd a643 453d 0175 123d
000001d0: b1c4 793d 2108 a53c 6510 563e 236b ed3d
000001e0: 1ea2 f53d 98a8 c53c 05e5 f6be 72f8 8cbd
000001f0: cc3a f5bc 80f3 813c 95e8 fb3d eddb b8bc
00000200: 0c1f c8bd a021 733e 68c3 26be 2292 d0bd
00000210: febf 5ebd 883c 393e f83e 8c3b e603 afbc
00000220: a8ed 5bbe 4322 17be bfbc 9bbd 96cc d23d
00000230: 08c4 e33d aa87 ba3d bbf0 b6be 6d9e 49be
00000240: fd95 fe3d 80f9 d43c 4c6e ee3d d373 333e
00000250: 7fb3 54be 3567 3e3e a814 363e c47b 07be
00000260: 5a85 95bd 5ea1 f5bd c85c 703e 2d35 01be
00000270: 11ca a43d e918 22bd 6c3f acbd 3205 8e3c
00000280: 9568 583d f4c6 f23d 2ff3 8dbe 6a9b 06bf
00000290: 1366 003e 4d27 1dbe 84f9 233e d0f6 a63d
000002a0: 7923 98bd 3f30 b0bd 6df3 7c3d fe36 963d
000002b0: 8935 8fbd a08f 74bb bbd1 cf3b 4333 2b3d
000002c0: 55e9 8bbd fa41 68bb c7c2 ddbd d37c 4fbc
000002d0: 3bae 893d 004a fd3c 3311 97bd 2412 e63d
000002e0: 66ba b5ba 54ad 5f3d 2925 5cbd 678a 3a3b
000002f0: 8928 4a3e 2cb3 ea3d 3169 adbe bc10 bebe
00000300: fc80 283d 40f6 04bd 6553 15bb 7541 9e3d
00000310: 183c c53d 6992 e2bd 3b3c a13c 46f8 b1be
00000320: 5f2f e2be 3cf0 3c3d ea22 1b3e 06fa 8a3d
00000330: a463 993d 7df1 fb3d 34d0 abbe 21af d33b
00000340: 7adb ebbc ef23 a33d 4a84 8d3d a960 4fbe
00000350: 2e3d edbd 61ab 493d 7530 4f3e 39e9 95bd
00000360: d603 91bc 759b 9bbc cfba 6e3d bdda 23be
00000370: 9a36 16be 02c7 a33d 5c9c 1fbc aae3 9b3d
00000380: 0ea4 15be 10e3 9dbe a367 f7bb f5a1 1fbe
00000390: 7676 24be 0d43 e3bd 581b 3bbe c04b 69be
000003a0: af17 893e 4eb9 eb3d 9bb3 703e 64b7 abbd
000003b0: aee7 3ebd b33a 8b3d 5169 abbe ed9e c63d
000003c0: a041 fdbd e30e b83d 7346 013e 4109 603e
000003d0: 3358 263e e452 2c3d 5ac5 a83b 385e 0bbe
000003e0: ee04 26bd 6588 f33d eb2b 2f3e 7332 ba3d
000003f0: 2293 d63c 81c2 3f3d bbfa 613d daa9 22be
0.0014331207 -0.03157064 -0.118918374 -0.19413473 -0.09676398 0.014318421 0.03917586 0.03405536
-0.015452696 0.161867 0.021997107 -0.074775 0.02421861 -0.058801226 -0.17356867 -0.10491856
0.041375957 -0.053666882 -0.15566683 -0.042203803 0.06851267 -0.187534 0.1255499 -0.07088042
0.067170374 0.15770696 -0.07327442 0.11640599 0.16086084 -0.017082332 -0.44539616 -0.062889494
0.15166542 0.048270676 -0.003282357 0.042583115 0.1344518 -0.0065911342 0.042500127 0.046168573
0.026165368 0.07756707 0.09543531 0.10092166 0.016137974 0.12346452 -0.056540217 -0.0056353444
0.11671454 0.22496852 -0.096331336 -0.018885987 0.039209392 -0.029977096 -0.03220968 0.16076931
0.20141117 0.32603306 0.12296171 0.16817805 0.18806495 0.19234057 -0.023169843 0.16755202
0.13793476 -0.25790396 0.14293258 0.14858747 -0.2255643 -0.0072052674 0.090297155 -0.05380003
-0.28906077 0.15938148 -0.047524452 0.0884023 -0.14967115 0.23396109 0.22103313 -0.037701398
0.033508535 -0.13821691 -0.013345115 -0.1818604 0.0019008598 -0.13718164 -0.44962695 -0.023585066
0.12197902 -0.17344077 -0.216242 -0.015316527 0.12292385 0.14134699 -0.08614467 0.033745296
0.10208561 -0.0689286 0.024987478 -0.15131195 -0.097576596 -0.06259488 0.054149948 0.13384451
-0.24401164 -0.0055615446 -0.036952186 -0.037308592 -0.10378544 -0.13301288 0.044420805 -0.20489892
0.011592472 -0.051353242 0.048160218 0.035756115 0.060978595 0.020145478 0.20904692 0.115927
0.11993812 0.024128243 -0.48221603 -0.06883325 -0.029935263 0.01586318 0.12300221 -0.022565806
-0.09771547 0.23743296 -0.16285479 -0.101841226 -0.054382317 0.18089497 0.0042799674 -0.021364164
-0.21477377 -0.14759164 -0.0760436 0.10292928 0.11121374 0.09107907 -0.35730538 -0.19689341
0.12430952 0.025997877 0.11642131 0.17524652 -0.20771597 0.18594058 0.17781317 -0.13230807
-0.073008254 -0.11993669 0.23472893 -0.12617941 0.080463536 -0.039574537 -0.08410534 0.017336462
0.052834112 0.118543535 -0.27724597 -0.52580893 0.12538938 -0.15347023 0.16013151 0.081525445
-0.07428641 -0.08602952 0.061755586 0.07334708 -0.06992633 -0.0037317052 0.0063421405 0.041796934
-0.06831614 -0.0035439716 -0.108281665 -0.012664038 0.06722685 0.030919075 -0.07376327 0.11233929
-0.0013864755 0.054608658 -0.053746376 0.0028463842 0.19742025 0.114599556 -0.33869317 -0.37122142
0.041138634 -0.032461405 -0.0022785303 0.07727329 0.096306026 -0.11063082 0.01968204 -0.3475973
-0.44176766 0.046127543 0.15150037 0.067859694 0.07489708 0.123019196 -0.33557284 0.006460086
-0.028791178 0.07965838 0.06909998 -0.20251717 -0.11583935 0.049235705 0.20233329 -0.07319874
-0.017702024 -0.018995026 0.058283623 -0.16001411 -0.14669266 0.07996942 -0.009741869 0.07611783
-0.14613363 -0.30837297 -0.0075501963 -0.15589125 -0.16060814 -0.11096773 -0.1827215 -0.22782803
0.26775882 0.115099534 0.23506014 -0.08384588 -0.046607666 0.06798305 -0.33478788 0.096982814
-0.123660326 0.089872144 0.1262453 0.2187853 0.16244583 0.04207124 0.0051504793 -0.1361016
-0.040532045 0.118912496 0.17106597 0.09091654 0.026193205 0.046816353 0.055170756 -0.15885106

bn2.weight f4 [64]
00000000: c9a8 193f 36df fd3e da9d 253f e0d7 223f
00000010: 255f 223f 5501 5b3f b5a9 513f 57bc 1b3f
00000020: ef72 0e3f bcf7 3c3f 1c01 fe3e 0403 f03e
00000030: b3cb 173f 28d8 c83e 1c58 053f 682e 983e
00000040: 893d d33e 659a 003f 90d7 ee3e d466 bd3e
00000050: 6424 383f da77 283f aba7 fa3e 6aa2 1e3f
00000060: 1b3d 273f 7ddc d33e 03d0 ef3e 1bfd db3e
00000070: f71e f33e 610b 253f ab1b 053f c708 313f
00000080: 07c6 e93e b256 3b3f 4e3b fe3e 24e7 183f
00000090: 3368 033f c598 453f 4a85 2f3f ecab b13e
000000a0: 63dd 193f 16b1 2c3f 17b9 153f 7e07 2a3f
000000b0: d5a8 833e 1986 ed3e c7ff 273f 0d4d 113f
000000c0: 096f 163f 4aef a43e 1c1b aa3e 296b 673f
000000d0: 6996 e53e 283b dc3e 9bd7 a73e 0738 003f
000000e0: 1eb1 fa3e 3dc2 cd3e 55ab e63e e35f b73e
000000f0: 2988 143f bca0 043f 9c8d 933e f770 c13e
0.6002317 0.4958436 0.6469399 0.6361065 0.6342643 0.8554891 0.8189958 0.6083426
0.55644125 0.7381551 0.4961022 0.468773 0.59295195 0.39227414 0.5208757 0.29722905
0.41257885 0.5023559 0.46648836 0.36992514 0.7193053 0.6580788 0.48956046 0.61966574
0.65327615 0.41379157 0.46838388 0.42966542 0.47484562 0.6447049 0.5199534 0.6915402
0.45658895 0.7317916 0.4965462 0.5972769 0.5133087 0.7718623 0.6856276 0.34701478
0.60103434 0.6745771 0.5848555 0.6641768 0.25714746 0.4639137 0.6562466 0.56758195
0.58763176 0.32213813 0.33223808 0.9039789 0.44841316 0.43013883 0.3278168 0.5008549
0.48963255 0.40187255 0.4505259 0.35815343 0.58020264 0.5180776 0.28818977 0.37781498

bn2.bias f4 [64]
00000000: 6715 81be a28e 7fbe e786 cabe 48f3 c3be
00000010: de1f 5ebe d164 a8be 6690 b7be d872 6dbe
00000020: d67c 90be 797a 89be 02bb 02be dc2b 97be
00000030: 07ff 8bbe bc27 37be f1cc 83be 159e 8ebd
00000040: cc34 283c 8c1e 84be 0412 24be 0ac1 49be
00000050: 051a a0bd 8075 43be 5369 31bd d340 5fbe
00000060: 963b 48be 8c57 c6bd 83b7 51be 8f05 08be
00000070: 9e1d 85be 4b75 b5be 1328 4abe b8ba 9dbe
00000080: 2024 7dbe 55e9 12bf 5bb4 ffbd 87e5 5dbe
00000090: 850b 76be a6f5 bfbe e3da f3be 378b b2bc
000000a0: 2bc3 30be 6197 3fbe 287f 9ebe 066b a5be
000000b0: 7a30 27bd 53f2 a0be 2c47 4bbe 0102 88bd
000000c0: 7ae0 babe 810a cdbd b0e7 f5bd 9be7 c3be
000000d0: 4807 83be cd85 7dbe 7b3f 1cbe 62b6 28be
000000e0: e078 e5be 3a97 8b3d 33eb a6be 2b24 83bd
000000f0: 13c3 c4be 6d42 cbbd ac03 5ebd 2de8 c3be
-0.2521164 -0.24956754 -0.39556047 -0.38271546 -0.21691844 -0.32889417 -0.35852355 -0.2318834
-0.28220242 -0.26851252 -0.1276665 -0.2952565 -0.27343008 -0.17886251 -0.25742295 -0.069637455
0.010266494 -0.25804555 -0.16022497 -0.19702545 -0.07817463 -0.19087791 -0.043313336 -0.21802072
-0.1955398 -0.09684667 -0.2048016 -0.1328337 -0.2599916 -0.3544105 -0.1974185 -0.30806518
-0.24720812 -0.57387286 -0.12485572 -0.21669589 -0.24027832 -0.37492102 -0.47627935 -0.021794898
-0.1726195 -0.1871009 -0.30956388 -0.32308215 -0.040817715 -0.3143488 -0.19851369 -0.06641007
-0.36499387 -0.10011769 -0.120070815 -0.38262638 -0.25591493 -0.24758072 -0.15258591 -0.16475824
-0.44818783 0.068159536 -0.32601318 -0.06403383 -0.3843008 -0.09924779 -0.05420272 -0.38263074

bn2.running_mean f4 [64]
00000000: 2a84 8bbe 0a3e 323f e405 6abe 1b1d 51be
00000010: 629b e9bd 57c7 5ebe 7829 85be 1d33 0ebe
00000020: 2291 3ebe baf2 7fbe 73c4 f3bd 524f d1bd
00000030: 1b2b a0be 249e 02be f4cf 2cbe d35c 0abe
00000040: bc9f 493e 5cb4 51be 8bb0 12be 8b1c 0bbe
00000050: 61c4 9cbe 3d48 37be d9cc abbd 222b cabd
00000060: 85d4 fcbd ec80 02be 1a1c d5bd 2074 a9bd
00000070: 5256 e9bd 5054 2bbe db2b 01be 7907 77be
00000080: dd63 28be cc7f 1dbe b776 61be 1e40 fabd
00000090: d36f 61bd 50df 62be 08dc 503f 32b5 47bd
000000a0: 56f2 eabd a88c 83be 7f49 90be 8f58 a3bd
000000b0: 041e 07be 6943 1b3d db07 73be d7fa bcbd
000000c0: cecc 8dbe e655 2abe 6c8f 48bd 487d 9fbe
000000d0: 0b3d f9bd 82bd 9bbd 8db2 a4bd 24f6 c2bd
000000e0: f185 a6be 7b25 59be 2c9d 64be 9970 11be
000000f0: f549 28be f7ca 123b fd88 43bd ac9c e23e
-0.2724927 0.69625914 -0.2285381 -0.20421259 -0.1140659 -0.2175573 -0.260082 -0.13886686
-0.18610051 -0.24994937 -0.11902704 -0.10220207 -0.31282887 -0.12755638 -0.16876203 -0.13511972
0.1968984 -0.20478958 -0.14325158 -0.13585107 -0.30618575 -0.1789865 -0.08388681 -0.09871508
-0.123452224 -0.12744492 -0.104057506 -0.08274102 -0.113934174 -0.16731381 -0.12614386 -0.24123944
-0.16444345 -0.15380782 -0.22017942 -0.12219261 -0.055038285 -0.221555 0.8158574 -0.048756786
-0.11472003 -0.2569325 -0.28181073 -0.079758756 -0.13195044 0.037906084 -0.23733465 -0.092275314
-0.27695316 -0.1663433 -0.048964903 -0.3115027 -0.12169846 -0.07604505 -0.08041868 -0.09519604
-0.32524064 -0.21205704 -0.22325581 -0.14203109 -0.16434462 0.0022398809 -0.047738064 0.44260156

bn2.running_var f4 [64]
00000000: f84e 913e f081 cb3d 5b46 703d 7fe6 9c3d
00000010: 8725 a43d f174 bd3e f59f 423e b33b 6c3d
00000020: f6b2 d53d d027 c53e ac94 173e 6414 0f3d
00000030: 9af1 533e a6cd ac3c aee2 a13d c17a cc3c
00000040: 19d3 c53d fe7d 5e3d 7e2e 7d3c fda4 9c3c
00000050: cb37 063f 50da a73e 7210 443d 781e 5e3d
00000060: d2b7 223e 1e8d 123d 0f6e 843d e65c 693b
00000070: 2f95 083d f4b4 4f3d c689 aa3c d842 b03e
00000080: 6871 423d 5062 2e3d 3c05 983d 68aa 5e3d
00000090: 96b1 dd3c 6326 fb3d a3ff 033e ee4f 683c
000000a0: 309c 8a3d db97 8b3e 2ac7 f93d 50bf f93d
000000b0: bea5 db3c 4700 f13d 721b b33e b36f 1b3d
000000c0: 962d 233e 9410 e03c b2a3 503d d072 f83e
000000d0: 16b0 fe3c d5cd a03c d6a7 9f3c 2f6d 033d
000000e0: 0f9f bc3d aaba 8a3d c2ec 433d f3ba 8c3d
000000f0: 7c2c 113d f55c 223e 3bad 173c 22c2 c53d
0.2838056 0.09936893 0.058660846 0.07661151 0.0801497 0.37003282 0.19006331 0.05767412
0.10434525 0.38506937 0.14802808 0.034931555 0.20697632 0.021094155 0.07904564 0.024960877
0.09659404 0.054319374 0.015452979 0.019121641 0.52428883 0.32783747 0.047867246 0.054228276
0.15890434 0.03577911 0.064663045 0.003560835 0.033345398 0.05070968 0.020817649 0.34425998
0.047471434 0.042574227 0.074228734 0.05436173 0.027062219 0.12263181 0.12890486 0.014179213
0.06768072 0.27264294 0.12196191 0.12194693 0.02681243 0.11767631 0.34981877 0.03794832
0.15935358 0.027351655 0.050937362 0.48525095 0.031089824 0.019629398 0.01948921 0.032086547
0.092100255 0.067738846 0.04783321 0.06871595 0.035442814 0.15855773 0.00925761 0.096561685

conv3.bias f4 [128]
00000000: 13d5 2837 46c9 ed37 06de 04b8 d270 1936
00000010: d5db 2db7 60bb 2635 0b37 b837 37cc 0bb8
00000020: 7647 b6b7 ea8d 18b7 029f 7fb7 9434 2837
00000030: 87ca 0638 041f 0eb7 90ec b237 55bb f1b6
00000040: df20 1bb8 f584 4335 3ddd 57b7 b321 e737
00000050: 808f 31b8 bc04 0eb8 a5b2 1538 4379 8137
00000060: 1c75 9bb7 8e0d 2ab8 708c 18b7 bfb9 a038
00000070: ab1d 80b6 d126 0138 0fd9 1738 df02 c2b6
00000080: 23ee a238 8f66 26b7 8707 4cb5 c835 6936
00000090: ab70 d3b5 20ce 10b8 37b5 9bb7 5f23 f1b7
000000a0: 38e5 8f36 c757 40b7 7b7c 4a37 cbe4 06b8
000000b0: ca46 1bb7 ad04 1037 60f4 acb7 7c1d 8f36
000000c0: 6de3 3d37 16c9 77b7 f5d5 8f34 f73d 89b7
000000d0: 2cf9 abb7 0a63 41b6 32e4 93b7 6ddf 69b7
000000e0: 9b81 1b35 d869 14b8 038c c437 acbe ddb8
000000f0: 6afd af36 92d0 cfb5 e09d 9538 3700 5d38
00000100: 379b 6737 760b 7fb7 09e7 6936 0808 d936
00000110: a508 1138 284c 9937 a2e7 4437 08c7 c6b5
00000120: 31d2 5bb8 113c da36 c220 38b7 0d1e 9236
00000130: 43f7 1e36 ac10 79b7 35f9 1c37 f991 7136
00000140: 3891 cab6 2e22 ed37 0f17 a237 15a5 7637
00000150: b93f 24b7 e1d7 0cb7 c7c3 5837 288f 1838
00000160: 005e 14b7 7d2a 0338 12d2 ad37 4a72 47b8
00000170: d936 9536 1100 83b7 a1f3 db37 5c05 dab6
00000180: 312c ecb8 6c10 1bb7 4cbd b037 bb91 4bb8
00000190: 94f4 42b7 5ba2 8fb7 ca45 0fb6 c5c9 1f37
000001a0: f466 4bb7 e1d2 4736 c33e c737 6e04 40b7
000001b0: df2f 3d38 ce6f 42b7 ea7f 3638 13ca 15b8
000001c0: 82c9 2e38 02b9 8bb7 48ed 88b6 9e88 5c37
000001d0: fa1c aab5 23f0 36b2 70a5 8737 acce c436
000001e0: 0e6f 3837 4bcf df37 8b55 3bb7 e188 0eb8
000001f0: f8e9 18b7 993b 6537 8c8d 9fb6 53a2 1cb6
1.00631905e-05 2.8346327e-05 -3.1678028e-05 2.2864447e-06 -1.0362787e-05 6.2112485e-07 2.196014e-05 -3.3330372e-05
-2.1729367e-05 -9.092948e-06 -1.5236206e-05 1.0025822e-05 3.2136708e-05 -8.471081e-06 2.1329412e-05 -7.204168e-06
-3.6985493e-05 7.283664e-07 -1.286651e-05 2.7553038e-05 -4.2333733e-05 -3.3859847e-05 3.5690744e-05 1.5434465e-05
-1.8531973e-05 -4.0543782e-05 -9.092604e-06 7.6639924e-05 -3.818151e-06 3.0792147e-05 3.6203357e-05 -5.781985e-06
7.7691184e-05 -9.91825e-06 -7.6006876e-07 3.475101e-06 -1.5753516e-06 -3.4524244e-05 -1.8561825e-05 -2.874591e-05
4.2884167e-06 -1.1464529e-05 1.2069121e-05 -3.216117e-05 -9.255202e-06 8.5841575e-06 -2.0617794e-05 4.2651645e-06
1.131823e-05 -1.4769166e-05 2.67915e-07 -1.6360527e-05 -2.0500818e-05 -2.881689e-06 -1.7630027e-05 -1.3939903e-05
5.79306e-07 -3.5384524e-05 2.3430219e-05 -0.000105736166 5.2449077e-06 -1.5483404e-06 7.13428e-05 5.2690706e-05
1.3804812e-05 -1.5201853e-05 3.4854186e-06 6.468039e-06 3.4578745e-05 1.8274484e-05 1.1736442e-05 -1.4810075e-06
-5.2409425e-05 6.503899e-06 -1.0974882e-05 4.3546374e-06 2.368776e-06 -1.4845438e-05 9.356348e-06 3.5996766e-06
-6.036975e-06 2.8268518e-05 1.9322642e-05 1.4701179e-05 -9.789998e-06 -8.3949135e-06 1.2920186e-05 3.637295e-05
-8.8433735e-06 3.1272404e-05 2.0721029e-05 -4.7551737e-05 4.446931e-06 -1.5616448e-05 2.6220283e-05 -6.49753e-06
-0.00011261588 -9.2425435e-06 2.1068983e-05 -4.8534694e-05 -1.1620246e-05 -1.7122531e-05 -2.1349283e-06 9.524117e-06
-1.21237135e-05 2.9776058e-06 2.3751874e-05 -1.1445123e-05 4.5105695e-05 -1.1589333e-05 4.351131e-05 -3.5712565e-05
4.16725e-05 -1.6656242e-05 -4.080739e-06 1.31448305e-05 -1.267442e-06 -1.0648395e-08 1.6170292e-05 5.865315e-06
1.0993112e-05 2.66802e-05 -1.1165986e-05 -3.3982917e-05 -9.114381e-06 1.366334e-05 -4.7550475e-06 -2.3340297e-06

conv3.lin.weight f4 [128, 64]
00000000: 6c51 4a3d d9c3 c33c 2d4f 023d 3ff6 c23d
00000010: 4b11 813d b255 d83b 74fb 8c3c 4fad 773b
00000020: 1f66 d93d 8138 913d 6447 4f3d f3b9 d4bc
00000030: 416f 1c3c 9e51 04bb e3b4 fdbc cd8d c8bc
00000040: 296c 34bd ed45 75bd 869f 043c 01c6 61bc
00000050: 90e5 b33c 2aeb 273d 74db 78bd 3b83 bb3c
00000060: bb7d 0a3d ee7a 6bbb 41c9 9b3d b094 ac3a
00000070: f926 e2bd 2d01 12bd 8509 3dbd f1c2 39bd
00000080: c29a 0f3c 45f6 a43c 6d81 27bd 7b5f d4bc
00000090: a6ff 8f3d d835 c23c da00 acbd ef89 22bd
000000a0: dcf0 213d 0176 023d 39e3 c7bc 1fa3 acbc
000000b0: 07ea 6cbc 184c 11bd 366d 3a3d b4b5 413d
000000c0: c5bf 403c 39e6 80bc a1fc 41bd c67a 463d
000000d0: 118a a33c 8ba0 20bd 4fec a4bd 80c6 323c
000000e0: 3b25 87bd a9be 41bc 314b 0d3d 1aae 9ebb
000000f0: 6102 3abd 1eb7 b83c 2bbd ec3c ad00 613d
00000100: 123a b13c fb2a 0fbd c30b d03d 90a0 573d
00000110: fcc1 e3bc 61d4 b93c 679c d2bc c19b ddbd
00000120: 87d9 6a3d fc4d 493d 0d6b ebbc 7ea2 edbb
00000130: a3ea 17bd 38ad febc ac7b 093d d7e8 c8bc
00000140: c7cf 1d3d 11dd 42bc 5607 5dbd 1861 38bd
00000150: 50e0 123d b798 ef3c 6a75 b8bc 4b9d 03be
00000160: 4527 87bd 1a7c 773c 21db fcbc 90ca 2a3d
00000170: ceac 793c 1f5e 65bc 7052 46bd f460 363d
00000180: 327b ab3c 6929 c93d 7e9f 7bbd 12cc b33c
00000190: d98f d73c 7405 803b 4800 c0bc 38ac 313d
000001a0: 76d5 023c b74b 1d3c 2544 a93c a5b9 6a3d
000001b0: 0f51 19bd 597e a13d a1f6 babc 93fa 0b3d
000001c0: ad95 0b3d bdf1 28bc 5d58 2d3d 0264 54bd
000001d0: fd70 e0bd 6142 e0bc c176 23bd f80f 24bd
000001e0: b0b1 ad3d 6ad3 bcbc da75 d43d 50c0 46bd
000001f0: d21c 93bc 3406 04bd 9419 56bd f91a 27bb
00000200: 9b5d 62bd ba09 e7bc 09ae 81bd 53e8 29bd
00000210: 2a4b ed3c 6887 973b 895f ecbc 632b bc3c
00000220: c477 ecbc b33d 33bb deaf 8fbd 93ea 4b3d
00000230: a814 24bc 80b9 233c b22b a03c 5ccd 6e3d
00000240: e5ae aa3c f63e 873d 7f70 d23c 6e3c 6e3d
00000250: d54f 1abd ecd0 27bc 3047 adbc ed70 17bc
00000260: 88a1 23bc d755 8abc f279 a8bd 697d d9bc
00000270: 104f b53d 6aef f43c 707d 903c fbd0 4f3d
00000280: 3c55 32bc a848 03bc 618f 243c 24b9 1b3d
00000290: b7c0 3ebd c082 963c affc c13b 5709 063c
000002a0: 8ed3 37bd 68e2 ccbc 4d2b d0bc 59b9 cebc
000002b0: 0fca 0bbd 4a12 d23a fab6 03bc eeac 2ebd
000002c0: 6620 f8bc 0e2a 0dbc f3b5 213d 11d9 ab3c
000002d0: e703 9c3b 1dbf 3b3c a61d 8d3d 98bc 55bb
000002e0: 5ef8 50be 97b6 793d ab5c b53b 39a2 33bc
000002f0: 2058 c23c 809d 22bd 00cc 613c a67a c5bd
00000300: 3419 303d 045d e43d f764 35bb 050e e7bb
00000310: 11c6 423c 8396 f1bc 43a5 153d 9de3 82bc
00000320: dda9 33bd c9af a53c 74b4 503a ef59 9abc
00000330: 0c18 36bd f7c4 92bc d98b 893d 62a3 9ebc
00000340: aafd 213c 5de9 76bd 9e0b f4bb 44e2 223d
00000350: 2ecb 10bc 5b98 e73b 1bd0 5dbd f654 5ebc
00000360: 3f75 50bd b252 4cbd 462b 9a3d 1c3f 21bc
00000370: ff02 aabd 8e65 fbbc 96ba 2c3c e129 7bbc
00000380: ace7 72bd 5a5a a0bd 619e 3ebd 11c3 863d
00000390: 125e 013d 43a3 ed3d 7f6e 093b 0ad1 3cbc
000003a0: e8a6 32bd 76a8 ad3d 02c2 363c 92ed 83bd
000003b0: 3f8c a03d 5686 1ebd 4e1f 983c 609b 523c
000003c0: cfc5 8c3d c954 0b3c 9098 48bd bcf4 643c
000003d0: 4938 26bd a0bd 7fbc 7df5 673c 56cc d2bb
000003e0: afff dbbd 2dcf a5bc 722d c1bd 141e 693d
000003f0: 04f5 c0bb 2edb ffbc 5f82 d1ba 3937 393d
0.049394056 0.023897098 0.03181379 0.09519624 0.063021265 0.0066020126 0.017209746 0.003779251
0.10615181 0.070908554 0.050605193 -0.025967574 0.009548009 -0.002019025 -0.030970043 -0.024481678
-0.044048462 -0.05988114 0.008094674 -0.013780118 0.02196005 0.040995754 -0.06075616 0.022889724
0.033811312 -0.0035931426 0.076067455 0.0013166871 -0.1104259 -0.035645653 -0.046151657 -0.045351926
0.0087649245 0.020136962 -0.040894914 -0.025924435 0.07031183 0.023707315 -0.083986 -0.039682325
0.039536342 0.03185082 -0.02440034 -0.021073876 -0.014460093 -0.03547296 0.045514308 0.047292426
0.011764471 -0.015734779 -0.047360066 0.04845693 0.019963296 -0.039215606 -0.08052885 0.010911584
-0.06598898 -0.011825242 0.034495536 -0.004842532 -0.045412425 0.022548255 0.028898796 0.054932285
0.021634135 -0.0349531 0.10158493 0.05264336 -0.02780246 0.022684278 -0.025709344 -0.10820723
0.057336356 0.049146637 -0.02873757 -0.0072520366 -0.037089 -0.031088457 0.03356521 -0.02452509
0.03852823 -0.011893527 -0.053962074 -0.04501447 0.035858452 0.029247625 -0.022516925 -0.12852971
-0.06599287 0.015105272 -0.030866208 0.041697085 0.015238954 -0.013999491 -0.048418462 0.044526055
0.020932768 0.098223515 -0.0614314 0.021947894 0.02631371 0.0039069 -0.023437634 0.04337713
0.007985463 0.009600571 0.020662377 0.05730595 -0.03743082 0.07885427 -0.02282268 0.034174513
0.03407829 -0.010311541 0.042320598 -0.051853187 -0.10959051 -0.027375402 -0.039908174 -0.04005429
0.08481157 -0.023050029 0.10374041 -0.048523247 -0.017958079 -0.03223248 -0.052270487 -0.0025498255
-0.05526505 -0.02820288 -0.06332023 -0.041481327 0.028966505 0.004624296 -0.028854148 0.022969907
-0.028865702 -0.0027350008 -0.07015966 0.049784254 -0.01001469 0.009992957 0.019552086 0.058301315
0.02083535 0.06603806 0.025688408 0.0581631 -0.03767379 -0.010242682 -0.021152109 -0.009243232
-0.0099872425 -0.016886635 -0.08226384 -0.026549058 0.088529706 0.029899318 0.017637938 0.05073641
-0.010884579 -0.008012928 0.01004395 0.03801836 -0.046570506 0.018372893 0.005920015 0.008180938
-0.04487949 -0.025010303 -0.025411272 -0.025234865 -0.034128245 0.0016027179 -0.0080392305 -0.042645387
-0.030288886 -0.008615984 0.03948016 0.020977529 0.0047612074 0.011459139 0.068904206 -0.0032613631
-0.20407245 0.060965147 0.0055347285 -0.01096397 0.023723662 -0.039700985 0.013781548 -0.09642534
0.042992786 0.11150554 -0.0027678588 -0.007051232 0.011888043 -0.029490715 0.03653456 -0.015977675
-0.043863166 0.020225422 0.000796146 -0.018841712 -0.044456527 -0.017916186 0.06716127 -0.019365016
0.009887138 -0.060281146 -0.007447674 0.039766565 -0.008837504 0.0070677227 -0.054153543 -0.013570061
-0.050893065 -0.049883552 0.07527785 -0.009841707 -0.08301353 -0.030688073 0.010542532 -0.015329809
-0.05930297 -0.07829733 -0.04653776 0.06580175 0.031583853 0.11603405 0.0020970402 -0.011524448
-0.043616205 0.08479397 0.0111546535 -0.06441797 0.0783925 -0.03870233 0.018569615 0.012854427
0.068736665 0.008504101 -0.04897362 0.013974365 -0.04058102 -0.015609175 0.01415765 -0.00643305
-0.10742127 -0.02024039 -0.09432496 0.05691345 -0.005888583 -0.031232443 -0.0015984288 0.04521868

bn3.weight f4 [128]
00000000: 8ad1 183f 33a8 193f 52f4 263f 5a7f 193f
00000010: b0f4 3a3f 1e8b 263f c9e7 173f aefc 193f
00000020: 5ff4 193f 4a7d 1b3f 5083 c93e 3aa2 1f3f
00000030: d2a5 0c3f d300 133f 8686 223f 8b72 033f
00000040: 747d 133f bda6 3d3f 2304 013f d1fe 053f
00000050: 0cc1 173f 9561 193f 5322 1c3f 1255 f63e
00000060: 60e1 113f 7eda 1a3f 5b52 243f 867c 043f
00000070: 1454 1e3f df87 1f3f 0164 0e3f 9515 303f
00000080: 4bf2 0e3f e54c 233f cf8b 133f 4f13 143f
00000090: 4bb8 1e3f ff3e 133f 1fd0 1e3f 85e5 033f
000000a0: 8ddd 053f 6a01 0e3f b618 1b3f b681 193f
000000b0: 8d24 f33e 4962 113f a0e2 143f 3571 0f3f
000000c0: 79df 053f cc87 0a3f 01e5 1d3f 882b 093f
000000d0: e055 353f c34e 0a3f 29bb 193f d5a9 0b3f
000000e0: ac93 0b3f 74cd 163f 3a31 193f a893 163f
000000f0: da8a 1c3f 7a2b 103f 7b31 203f 98f9 0d3f
00000100: 2fbc 133f dd5a 0b3f ec86 193f 4382 053f
00000110: b613 1b3f 3ee4 1a3f ba4b 1b3f 42c6 013f
00000120: 6b19 083f 6d68 1b3f 148e 0c3f 9ce6 1f3f
00000130: a666 0f3f 1301 0f3f 71b2 0a3f 90ed 1b3f
00000140: ecee 153f 6714 063f 32d0 0c3f c9f5 1d3f
00000150: 19c8 0a3f a185 0b3f e623 163f 7f4c 1a3f
00000160: 0cb6 153f 39d4 113f e374 153f 7749 1f3f
00000170: 992b 153f be22 073f d99a 223f 2d20 203f
00000180: 286f 273f d93a 053f 2c46 273f f2c0 163f
00000190: 4e8f 133f 01cf 213f f965 033f 8a46 153f
000001a0: 1efb 0f3f d42f 073f 9e2b 1c3f 139d 1f3f
000001b0: 6474 123f e02e 0b3f 1559 213f 54a4 1d3f
000001c0: f6d3 163f 5ebf 063f 7f97 1a3f 5e2b 133f
000001d0: e0e9 173f c8ae 163f 18ba 2a3f b7b1 1e3f
000001e0: cf89 103f 9c2a 113f 76af 193f 33dc 213f
000001f0: 4da0 1d3f f052 2c3f 9df6 113f 1515 103f
0.5969473 0.60022277 0.65216553 0.5995995 0.73029613 0.65056026 0.5933805 0.60151184
0.60138506 0.6073805 0.39357996 0.62356913 0.5494052 0.5742313 0.63486516 0.51346654
0.576133 0.7408255 0.5039694 0.52341944 0.5927894 0.59914523 0.60989875 0.48111778
0.5698452 0.6048964 0.64188164 0.5175251 0.61847043 0.623167 0.55621344 0.6878293
0.5583846 0.63789207 0.57635206 0.5784196 0.6199996 0.57518 0.6203632 0.51522094
0.52291185 0.5547091 0.6058458 0.5996355 0.47488824 0.56790596 0.581583 0.56032115
0.5229412 0.5411346 0.6167756 0.5358205 0.7083416 0.5402643 0.6005121 0.5455602
0.54522204 0.58907247 0.5984074 0.58819056 0.6114937 0.5631634 0.625755 0.55458975
0.5770902 0.5443552 0.599715 0.5215189 0.6057695 0.6050452 0.60662425 0.5069314
0.53163785 0.60706216 0.54904294 0.62461257 0.56016004 0.55861014 0.5417853 0.60909367
0.5856769 0.5237488 0.5500518 0.61703163 0.54211575 0.54500777 0.58648527 0.60272974
0.58480906 0.5696445 0.5838148 0.62221473 0.5826965 0.5278739 0.6351753 0.62549096
0.65403986 0.5204292 0.6534145 0.5888816 0.5764054 0.6320649 0.5132747 0.5831076
0.5624255 0.52807355 0.61004055 0.6234905 0.5720885 0.543684 0.63026553 0.6157887
0.58917177 0.52635753 0.60387415 0.5748805 0.5934124 0.58860445 0.66690207 0.6198992
0.5646028 0.5670564 0.6003336 0.6322662 0.61572725 0.6731405 0.57016927 0.5628217

bn3.bias f4 [128]
00000000: 293a 643e ffd2 cabc f4da 0d3f 3c5f 753e
00000010: 673a e73e d625 14be 59f4 5f3e c826 043e
00000020: 175c f63d a3b3 5fbe 58ad 823f e8b4 73be
00000030: 6889 373e 2886 8e3e 5703 b2bd a98c 673f
00000040: 7ed4 a23e ab32 143f d17b cd3e 62bd ccbd
00000050: 11f4 363d 12a4 db3d 06df d4bd 6e92 be3e
00000060: 94b1 703e ac00 c9bd 8124 bfbe c0b6 9cbe
00000070: 0bd8 673e 3789 733e 8b90 833d f0a9 043f
00000080: 789e be3a bbdb 513e 3e51 1f3e c41c be3d
00000090: 363c 953e 691e e33d 09a0 253f 1730 ce3a
000000a0: cc1b d13e d566 433d 2087 223e 4f3c 603d
000000b0: 478d 083e 44ec 5d3e 0792 ba3e 5601 01be
000000c0: 8a2a b1bd 5854 4c3e 4a31 413e 6015 ee3e
000000d0: 7dd9 983e 5765 003f 6615 3abe 3d18 3a3e
000000e0: 763f 5d3e 2045 df3d 6992 5c3d fabc 08be
000000f0: cca2 803e e749 8d3e d134 cd3c feba 823e
00000100: cab8 3c3e cc15 93bd 1558 7b3e 811a 893e
00000110: 5a97 323e a2ee dc3d 6657 f4bc 3ae2 7ebd
00000120: 6ddb 5abe f2db a2be 236f 593f c506 483e
00000130: 9356 f23e d8ae 103e d04c 28bd ff2c 9dbe
00000140: 0275 583e faf7 913e aeae 243f ea05 dc3d
00000150: 2d27 5b3f 98fb 893e 636e 413e 97a2 4abe
00000160: 447e 18be 64a8 583e 76f0 2d3e c5cc 10bd
00000170: 20ee 4e3e 7a44 9e3e 2594 5f3e 74a2 403e
00000180: 95ef 093e 0d91 2bbd e54d 5c3e cb3e 713e
00000190: 5016 133d 8ed9 843e f55b 2b3e 91ca ab3d
000001a0: 7864 13bd 5a6d 983e 4d0c 933e 27a1 bebd
000001b0: 1c1e 09be ce9e 893e a3bb 92bb aebe 433e
000001c0: 5562 773e a9fb 023f 5357 043e ff95 a4be
000001d0: b28a 643e b43f 533e 5790 013f b5e7 22be
000001e0: b0f5 ce3e f3cb 533e fa7b 863e 6efe 603e
000001f0: 61a3 d23d f753 e03d d9a2 1abd 8319 1a3f
0.22287811 -0.024758814 0.5541222 0.2396211 0.45161745 -0.14467558 0.21870555 0.12905419
0.120292835 -0.2184587 1.020915 -0.23799479 0.1792351 0.27836728 -0.08692043 0.90449005
0.31802744 0.57889813 0.40133527 -0.099970594 0.044666354 0.10724653 -0.10394101 0.37221092
0.2350524 -0.09814581 -0.37332538 -0.30608177 0.22641008 0.23782812 0.06424054 0.51821804
0.0014543077 0.20493977 0.15558335 0.0928283 0.291475 0.11089785 0.6469732 0.0015730885
0.4084152 0.04770549 0.15871859 0.054745015 0.13335143 0.2167216 0.36439535 -0.12598166
-0.08650692 0.1995405 0.18866459 0.46500683 0.2985343 0.5015463 -0.18172225 0.18173309
0.2160624 0.109018564 0.053850565 -0.13353339 0.25124204 0.27595446 0.025049599 0.2553329
0.18429866 -0.07181892 0.2454532 0.26778033 0.17440549 0.10787703 -0.029826831 -0.062227465
-0.21372767 -0.3180843 0.84935206 0.19533832 0.47331676 0.14129198 -0.04108888 -0.30698392
0.21138385 0.28509504 0.6432904 0.107433155 0.8560665 0.26949763 0.18889765 -0.19788586
-0.14891917 0.21157986 0.1698626 -0.035351533 0.20208025 0.30911618 0.21833856 0.18811971
0.134703 -0.041886378 0.2151409 0.2355911 0.03590995 0.2594723 0.16734298 0.08388246
-0.035984486 0.2977093 0.28720322 -0.09308081 -0.13390392 0.2687897 -0.0044779344 0.19115707
0.24158604 0.5116525 0.12923937 -0.32145688 0.22318533 0.2062977 0.5061087 -0.15908702
0.4042182 0.20683269 0.26266462 0.21972057 0.10285068 0.10953515 -0.03775296 0.6019518

bn3.running_mean f4 [128]
00000000: 1097 32bc 6260 ffbc 513a fdbb 5cc8 8ebc
00000010: 386a 12bc 7d48 693c d44a a239 54ae 8c3a
00000020: acc1 79bd 98ca 043b 8fd5 fc3c e80d 0cbc
00000030: d8bf cfbc 2711 46bd 7599 0b3c 8cc2 723a
00000040: 48e0 32bd f182 b9bb 5d7e 29bc 102a 433c
00000050: 6744 443d da4b b63c 6f4a 8a3b 3493 afbc
00000060: 2b92 20bd 5475 0cbc 6edc afbc 8a96 18bd
00000070: 5a2a 9abc f24d 8f3c 8acb 28bb ba37 73bc
00000080: 6794 19bd 067e 26bd 5eca 0ebc e6a2 5d3c
00000090: 2108 933c 4ace e63c a08c b03c 39fc 0b3d
000000a0: 5bfa 293c b4cb fabb 70e6 a23c f803 293d
000000b0: 4ca7 bdbc 95bd 0ebc 7615 28bd 8e11 30bb
000000c0: 097a b33c 56aa 323c 67e9 81bc a730 6b3c
000000d0: 3502 983b ec17 e23b 1cbb 45bb 63bd c739
000000e0: 2307 493b 9a99 543d a9d1 4fbc 9382 173d
000000f0: 5563 e13b 976f a43c 2c63 0b3c 6eeb 89bc
00000100: 84e3 483d 4142 e13c e486 05bc f234 15bb
00000110: 891e 92bc a03b 28bd ac0c 0d3c 2219 ccba
00000120: fbd0 0d3d 67fe 283b 0578 b33c cbfd 853c
00000130: 9f11 e13c e0f2 e33c 3af0 b8bc 143c ec3a
00000140: 44b5 83bc f9f3 473d a389 963c 1097 44bc
00000150: 2d23 3fbc 2c89 483c eecc ed3b 95c8 b53c
00000160: 687a 42bc 5eff cabc b6d7 bdba ac63 b7bc
00000170: d581 7bba 64a5 adbc a470 97bc 51b4 16bc
00000180: cae9 85bd a811 5a3c dbf6 1cbd 7dcb 4dbb
00000190: b168 5d3d 4144 53bd 3551 b3bc 27e8 263c
000001a0: c824 50bb c200 10bc ff4c 823c 45e1 9b3c
000001b0: 72ba a63c 2749 b9bc 211a e3bc 1085 0a3c
000001c0: 3469 38bc 0b23 33bb a339 cabc 2845 9c3c
000001d0: 3e63 14bb 487c 493b 2935 6c3c c005 2e3c
000001e0: d0cf bdbb 25f6 9fbc 4a6c 62bd dc3e 62bd
000001f0: 8770 b739 d41b 71bc 0a6d df3c 2511 c6bc
-0.010900274 -0.031173889 -0.007727899 -0.017429523 -0.008936457 0.014238474 0.000309548 0.0010733106
-0.060975716 0.0020262357 0.030863551 -0.008548237 -0.025360033 -0.0483562 0.008520474 0.0009260557
-0.043670923 -0.0056613614 -0.010345069 0.011911884 0.047916796 0.022252966 0.004220299 -0.021432497
-0.039201897 -0.008572895 -0.021467414 -0.03725294 -0.018819023 0.017493222 -0.0025756084 -0.014844829
-0.037495043 -0.04064753 -0.00871524 0.013527608 0.017948212 0.028174538 0.02155143 0.034176085
0.010374631 -0.007653678 0.019885272 0.04126355 -0.023151062 -0.008712192 -0.04103609 -0.0026865932
0.021908777 0.010904869 -0.015858365 0.014354861 0.004638935 0.0068998244 -0.003017134 0.00038097342
0.003067442 0.0519043 -0.012684264 0.03698976 0.0068782964 0.020072741 0.008507531 -0.016835894
0.0490451 0.027497413 -0.008149836 -0.0022767154 -0.017836826 -0.041072488 0.008608978 -0.0015571455
0.034623127 0.0025786401 0.021907816 0.01635637 0.027474223 0.027825773 -0.022575486 0.0018023276
-0.016077645 0.048816655 0.018376177 -0.011998907 -0.011666101 0.012239736 0.0072570955 0.022190372
-0.011870004 -0.024779972 -0.0014483843 -0.022386394 -0.00095942366 -0.021197028 -0.018486328 -0.009198264
-0.06538732 0.013309874 -0.038321357 -0.0031401806 0.05405492 -0.051578764 -0.021889308 0.010187185
-0.0031760205 -0.008789243 0.015905855 0.019028315 0.020352576 -0.02261789 -0.02772242 0.008454576
-0.011255551 -0.002733412 -0.024685686 0.019075945 -0.002264216 0.0030744243 0.014416971 0.010621488
-0.0057925954 -0.01952655 -0.055279054 -0.05523573 0.0003498832 -0.014716107 0.027273674 -0.024178097

bn3.running_var f4 [128]
00000000: 656d 993a be0a 2a3a 1c3f 8d39 a651 1f3a
00000010: a8c7 223a a613 523a 80b5 463a 04b8 313a
00000020: 8037 9b3a 4b72 5c3a d655 9d39 54b8 dd39
00000030: 7617 7d3a 215f 4c3a a72e 853a 1da6 8d39
00000040: b1be 2f3a 2587 123a 1fda 163a a735 3c3a
00000050: 1472 243a e9b3 4f3a c60a 2c3a 6e8a 3a3a
00000060: b55e 4d3a 4ea5 473a d9aa 313a 75a2 773a
00000070: 6ac8 293a cf05 983a 01e1 2a3a fb55 aa39
00000080: 81c7 de39 5ad4 943a 43b4 3d3a 4070 463a
00000090: 8e8e 8f3a c773 403a 527d 8739 f8fa 2e3a
000000a0: 3353 283a c28b 543a 6aaa 323a 93b5 ff39
000000b0: 60a8 0f3a 2b72 583a 613b 363a 03d4 c439
000000c0: 6c42 f939 cd42 503a ab5d 9f3a 2aca 1d3a
000000d0: 5a49 4c3a a2c4 f039 0ec7 423a 32af 6d3a
000000e0: 8635 243a 805e 343a 2316 5a3a a661 373a
000000f0: 850f 9c3a ddde 213a aa92 0d3a e2ef 553a
00000100: 2943 273a 7b26 2c3a 7378 443a fcbc f939
00000110: b2fa 3e3a e739 433a 64d6 483a eeee 3e3a
00000120: 7b1a 123a d2db 2d3a 28fa 9e39 b326 113a
00000130: cbe3 073a 7fc1 123a 180d 5c3a f688 373a
00000140: a2cb 593a b714 013a 3001 de39 8d44 a03a
00000150: 21b6 ce39 1c60 313a 378a 5e3a a71a 333a
00000160: 8474 c839 72e3 823a 1c9e 543a 214d 693a
00000170: 611f 4f3a e3dc 2c3a 3cea 5a3a 0582 473a
00000180: 732c 383a 2f08 183a da6b 8f3a 6450 1b3a
00000190: 1729 133a 8532 6b3a 562d 573a 61d0 683a
000001a0: 2c34 2a3a 3812 3a3a baae 373a 763a 8b3a
000001b0: 1d6d 113a 9690 4e3a fb86 a53a 9a06 433a
000001c0: 34d8 aa3a 8289 d839 b9da 0f3a 608d fd39
000001d0: 9805 303a 602c 8d3a f40e 9839 73c6 703a
000001e0: 33af 9439 f8a1 693a 1f7b 453a c80b d939
000001f0: ea3b 473a 7979 913a be6f 4c3a 21f7 0f3a
0.0011705576 0.0006486586 0.00026940636 0.0006077535 0.00062095607 0.0008013792 0.0007580146 0.00067794346
0.0011842102 0.0008409365 0.00030009326 0.0004228974 0.000965468 0.0007796158 0.0010160998 0.0002701738
0.00067041354 0.0005589596 0.00057545485 0.00071796257 0.00062731025 0.0007923232 0.00065628847 0.00071159645
0.0007834242 0.000761588 0.00067774724 0.000944651 0.00064767024 0.0011598411 0.00065185135 0.00032488987
0.00042491782 0.001135479 0.0007236639 0.0007569827 0.0010952519 0.0007341471 0.00025842577 0.00066749705
0.0006421089 0.0008107984 0.0006815555 0.00048772673 0.0005480107 0.00082567584 0.0006951597 0.00037541994
0.0004754247 0.00079445244 0.0012158653 0.00060191995 0.00077929127 0.0004592287 0.0007430174 0.00090669387
0.0006264079 0.00068805367 0.00083193387 0.0006995447 0.0011906481 0.0006174872 0.0005400578 0.00081610505
0.0006380552 0.00065670133 0.0007494755 0.00047633785 0.00072852813 0.0007447288 0.0007661341 0.0007283528
0.0005573404 0.0006632182 0.0003032249 0.00055370777 0.0005183785 0.0005598291 0.0008394285 0.0007001305
0.0008308237 0.0004924046 0.00042344024 0.0012227461 0.00039427078 0.00067663356 0.00084892235 0.00068322796
0.00038233784 0.0009985997 0.00081107183 0.0008899738 0.0007901099 0.0006594194 0.00083509437 0.0007610622
0.00070256664 0.00057995593 0.0010942176 0.000592476 0.0005613728 0.00089720666 0.00082083547 0.00088811485
0.00064927596 0.0007098052 0.0007006932 0.0010622281 0.000554757 0.00078798214 0.0012628728 0.00074396434
0.0013034404 0.00041301182 0.00054876093 0.00048361253 0.0006714701 0.0010770671 0.0002900284 0.00091848447
0.00028359293 0.000891238 0.00075333 0.00041398243 0.00076001754 0.0011098824 0.00077986333 0.0005491842

fc.weight f4 [50, 128]
00000000: b5a6 743d e554 663d cff2 123e 5362 523e
00000010: fdd0 3c3e 8b09 22be 32fd c13b 7b5a 19bc
00000020: f8b0 bebd 7def 4f3e 6d8f 3b3e 09e3 17be
00000030: fc31 39be 16e4 233d d448 40be c378 3a3e
00000040: bd13 56bd a970 403e b82f 6d3e d841 3b3e
00000050: 0409 663e 9dc5 29be ddb5 8fbd 7598 5b3e
00000060: 220c 03be 600d e2bd 0c11 23be 8418 813e
00000070: 973b 343e fd7e bcbd 3532 4a3e 9465 3f3e
00000080: 885b 343e ac4e b6bd 3255 62be e613 59be
00000090: 07e5 f6bc ee25 4b3e 8fae 4c3e f7e1 873e
000000a0: a792 603e b2bc 2b3e 62a4 9b3d 02c5 3c3e
000000b0: 9d6f 5c3e 87f0 6dbd 008e 17bd d682 903d
000000c0: f69d 5d3e 6b7a 523e ee0a 4abe 9233 503e
000000d0: 7313 4f3e c743 463e df43 47be 42b5 ccbc
000000e0: 3056 38be e01e 583e 7fd6 233e bf2a 773e
000000f0: 5719 17be a76b 373e 5f0d 113e 4175 b73d
00000100: 4e12 643e 3cf9 323e 5fe3 4bbb 746a 323e
00000110: fa3d 323e 2969 1e3b 1ca2 693e 466a 633e
00000120: 1cd8 873e cc95 83be a523 453e fd0b 1c3e
00000130: 6112 643e 9d47 433e 0e17 543e bbd5 b53c
00000140: 0bd9 f8bd 660e 333e 1044 573e 44e8 49bd
00000150: 7a59 283e bfc8 353e f6c6 503e 645c 8cbd
00000160: b97a 7bbe e9f5 3cbe 1e50 01be 026a 26bd
00000170: a8e1 4bbe cb71 663e 8062 393e dc15 523e
00000180: dcab b3bd 02f7 4e3e ad12 12bd 8308 673e
00000190: f24d 853e a315 ccbd 2593 713e d72e 313e
000001a0: bf97 603e 1b99 bd3d ec42 3f3e c12c 34be
000001b0: 10d5 143d 268e 8bbd 4bf0 453e d399 373e
000001c0: d097 86bd bcae 353e 51d1 1bbd ff9d 3cbe
000001d0: d458 57be fbbf 973d dcf2 e13d e601 6cbe
000001e0: c7cb 463e 9047 3dbe b730 b2bd 79b8 abbd
000001f0: 6611 b0bd aeb7 73bd 8544 293e 8ed2 263e
00000200: 38ce 673e 9781 8e3e 5abc a13d c4ed 933d
00000210: a3e4 3a3e 67bb 92be 9a30 b33d 355b b6bd
00000220: dc37 08bc f653 ae3e fc16 3b3e cf78 7bbe
00000230: a7dd 45bd ec23 493e d8ba 65be 1faf 3d3e
00000240: 783b 08be 0a76 403e 6118 3a3e 816a 43be
00000250: d0f9 2c3c 16a3 283e f7a1 603e b925 343e
00000260: da1b f0bd 04ce 623e 072f b73e 8dfc 53be
00000270: a2a7 583e 47ef 4e3e 5d3d 03bd 0add 3c3e
00000280: cc8f 933e 589c e6bd 20a0 603e 6ca4 3c3e
00000290: 7e57 453e 9159 fe3d 8b80 3a3e 9fa4 913d
000002a0: be86 4f3e 0aca 71bd d93d 4e3e 0ab2 313e
000002b0: cd38 65bd 38b5 bf3d 7cac 323c 9b38 4ebe
000002c0: 2f60 8fbd 3739 dc3d 07e6 503e 2b45 483e
000002d0: 7e08 423e b562 203e cd6e 723e 1c24 9b3d
000002e0: fa1b cd3c 62e0 213c ccfe 4c3e 73a3 823e
000002f0: 2399 2f3e a382 8f3c 12f5 453e b73c d1bc
00000300: 5e96 373d bb49 bfbd 3808 08be 828b 2b3c
00000310: 714c 663e 511c 6b3e 4ea9 3f3e 314f 26be
00000320: 2fbe 17be 40a3 51be 2a8c 473e 239f c2bc
00000330: 9e5b 583e 62f7 2a3e 049b cc3d 6ac5 523e
00000340: 5245 04bd 5ece 563e 9d9d 4d3e ff91 573e
00000350: 454b 463e aef4 323d ad95 c43c cd2f 7ebe
00000360: 9c97 823e fb2d 013d 4687 8abc af0b 923e
00000370: 50aa e53c 1ebb b63d b0ef c5bd 438e 653e
00000380: 469e 8fbd fa16 153e 0000 12bd 91db 543e
00000390: 0225 c63c adc6 22bd ef85 04bc 719e e3bd
000003a0: f8bf 513e 77a5 553e 2f1e c43d 486f 6ebe
000003b0: e4cd 49be 998f f0bd 5184 2b3e c7ef 2b3e
000003c0: 2cd9 573e 1738 443e 0667 c3bc c006 7cbe
000003d0: c537 083e 9cf5 6f3e 5ec8 2d3e c2c7 59be
000003e0: 2ca7 943d cbb7 543c 697a d2bd aa82 16bd
000003f0: caa0 373e 1b97 19be c1f3 24be aeaa 4b3e
0.059729297 0.056233305 0.14350437 0.2054532 0.18439098 -0.15823953 0.005920076 -0.009359951
-0.09311098 0.20306201 0.18316431 -0.14832701 -0.18085474 0.04001244 -0.18777782 0.1821013
-0.052264918 0.18792976 0.23162735 0.18286836 0.22464377 -0.1657929 -0.070171095 0.21444876
-0.12797597 -0.11037707 -0.15924472 0.25214016 0.17600857 -0.092039086 0.19745715 0.18691093
0.17613041 -0.08901724 -0.22102812 -0.21198997 -0.030138506 0.19838688 0.19988464 0.26539585
0.21930943 0.167712 0.07599713 0.18434528 0.21526952 -0.058090713 -0.037000656 0.07056205
0.21642289 0.20554511 -0.19730732 0.20332173 0.20222263 0.19361793 -0.19459485 -0.024988774
-0.18001628 0.21105528 0.15999793 0.241374 -0.1475576 0.1791216 0.14165257 0.08957911
0.22272608 0.17477888 -0.0031110866 0.17423421 0.17406455 0.0024171567 0.22815746 0.22208509
0.26532066 -0.25700223 0.19251879 0.15238948 0.22272636 0.19070287 0.2071192 0.022196641
-0.12150773 0.17485961 0.21022058 -0.04929377 0.16440383 0.1775236 0.20388398 -0.068535596
-0.24558534 -0.18453182 -0.12628219 -0.04062844 -0.199103 0.22504346 0.18103981 0.20516151
-0.08773014 0.20211414 -0.035662342 0.2256184 0.2603603 -0.099650644 0.23591287 0.17303024
0.21932887 0.09257718 0.18677872 -0.17595197 0.036336005 -0.06814222 0.19329946 0.17929773
-0.06571925 0.17742437 -0.038041417 -0.18419646 -0.21029979 0.07409664 0.1103265 -0.23047599
0.19413672 -0.1848433 -0.08700698 -0.08384795 -0.085970685 -0.059501342 0.16530044 0.16291258
0.2263726 0.27833244 0.07897253 0.072230846 0.1825128 -0.28658602 0.087495044 -0.08904115
-0.008314099 0.34048432 0.18270487 -0.24557804 -0.048307087 0.1964261 -0.22434556 0.18523835
-0.13303936 0.18795028 0.18173362 -0.19083597 0.010557607 0.16468462 0.21936785 0.17592515
-0.11724062 0.22148901 0.35778067 -0.20701809 0.21157697 0.20208465 -0.032040942 0.18443695
0.28820646 -0.11260289 0.21936083 0.18422097 0.19271657 0.12419427 0.18213098 0.07111477
0.20266244 -0.05903057 0.2014078 0.17353073 -0.055962373 0.093607366 0.010905381 -0.20138781
-0.070007674 0.107531 0.20400248 0.19557635 0.18948552 0.15662654 0.2367508 0.07575247
0.025037754 0.009880157 0.20019072 0.25515327 0.17148261 0.017518347 0.19331768 -0.025541646
0.044821136 -0.09340235 -0.13284385 0.010470273 0.22490098 0.2296002 0.18716928 -0.16241147
-0.14818643 -0.20472431 0.19487062 -0.023757523 0.21128699 0.16695932 0.099905044 0.2058312
-0.03229267 0.2097716 0.20079656 0.21051787 0.1936465 0.043690376 0.023997152 -0.24822922
0.25506294 0.03153799 -0.016910207 0.2852454 0.028035313 0.089224085 -0.096648574 0.2241755
-0.0701261 0.14559546 -0.03564453 0.20786883 0.024187569 -0.039740253 -0.008088573 -0.11114205
0.20483387 0.20863901 0.095760696 -0.23284638 -0.19707447 -0.11746139 0.16749693 0.16790687
0.21078938 0.19162022 -0.023852836 -0.2461195 0.13302524 0.23433536 0.16970965 -0.21267608
0.07258448 0.012983273 -0.10277254 -0.036745705 0.1793243 -0.14999048 -0.1610861 0.19889328

fc.bias f4 [50]
00000000: 22d8 143f 04ae 9a3e ffba 91bd 612d c63e
00000010: bf55 1dbe c055 1dbe c055 1dbe be55 1dbe
00000020: c155 1dbe c055 1dbe bf55 1dbe c055 1dbe
00000030: c055 1dbe bf55 1dbe be55 1dbe c055 1dbe
00000040: c055 1dbe bf55 1dbe c055 1dbe c055 1dbe
00000050: c155 1dbe c055 1dbe bf55 1dbe c055 1dbe
00000060: 9823 bebe 7b0f ec3c 6d29 54be 7b56 61be
00000070: c055 1dbe be55 1dbe c055 1dbe bf55 1dbe
00000080: c055 1dbe c055 1dbe c055 1dbe c055 1dbe
00000090: c055 1dbe c055 1dbe bf55 1dbe c055 1dbe
000000a0: c055 1dbe c055 1dbe c055 1dbe bf55 1dbe
000000b0: c055 1dbe bf55 1dbe bf55 1dbe d9c4 283f
000000c0: 33fe b33d 16db 96be
0.5814229 0.30210888 -0.07115745 0.38706496 -0.15364741 -0.15364742 -0.15364742 -0.1536474
-0.15364744 -0.15364742 -0.15364741 -0.15364742 -0.15364742 -0.15364741 -0.1536474 -0.15364742
-0.15364742 -0.15364741 -0.15364742 -0.15364742 -0.15364744 -0.15364742 -0.15364741 -0.15364742
-0.3713653 0.028815975 -0.20718928 -0.22005646 -0.15364742 -0.1536474 -0.15364742 -0.15364741
-0.15364742 -0.15364742 -0.15364742 -0.15364742 -0.15364742 -0.15364742 -0.15364741 -0.15364742
-0.15364742 -0.15364742 -0.15364742 -0.15364741 -0.15364742 -0.15364741 -0.15364741 0.65925366
0.08788719 -0.29464024
